#loc = loc("/var/lib/jenkins/AMD-triton/python/perf-kernels/issue561/new_ll/../../flash-attention.py":434:0)
#loc1 = loc(unknown)
#loc74 = loc("/var/lib/jenkins/AMD-triton/python/perf-kernels/issue561/new_ll/../../flash-attention.py":676:52)
#loc105 = loc("/var/lib/jenkins/AMD-triton/python/perf-kernels/issue561/new_ll/../../flash-attention.py":304:42)
#loc112 = loc("/var/lib/jenkins/AMD-triton/python/perf-kernels/issue561/new_ll/../../flash-attention.py":309:25)
#loc151 = loc(callsite(#loc1 at #loc105))
#loc158 = loc(callsite(#loc1 at #loc112))
#loc172 = loc(callsite(#loc151 at #loc74))
#loc175 = loc(callsite(#loc158 at #loc74))
module {
  tt.func public @attn_fwd(%arg0: !tt.ptr<f16> {tt.divisibility = 16 : i32, tt.pointer_range = 32 : i32} loc("/var/lib/jenkins/AMD-triton/python/perf-kernels/issue561/new_ll/../../flash-attention.py":434:0), %arg1: !tt.ptr<f16> {tt.divisibility = 16 : i32, tt.pointer_range = 32 : i32} loc("/var/lib/jenkins/AMD-triton/python/perf-kernels/issue561/new_ll/../../flash-attention.py":434:0), %arg2: !tt.ptr<f16> {tt.divisibility = 16 : i32, tt.pointer_range = 32 : i32} loc("/var/lib/jenkins/AMD-triton/python/perf-kernels/issue561/new_ll/../../flash-attention.py":434:0), %arg3: !tt.ptr<f32> {tt.divisibility = 16 : i32, tt.pointer_range = 32 : i32} loc("/var/lib/jenkins/AMD-triton/python/perf-kernels/issue561/new_ll/../../flash-attention.py":434:0), %arg4: !tt.ptr<f16> {tt.divisibility = 16 : i32, tt.pointer_range = 32 : i32} loc("/var/lib/jenkins/AMD-triton/python/perf-kernels/issue561/new_ll/../../flash-attention.py":434:0), %arg5: i32 {tt.divisibility = 16 : i32} loc("/var/lib/jenkins/AMD-triton/python/perf-kernels/issue561/new_ll/../../flash-attention.py":434:0), %arg6: i32 {tt.divisibility = 16 : i32} loc("/var/lib/jenkins/AMD-triton/python/perf-kernels/issue561/new_ll/../../flash-attention.py":434:0), %arg7: i32 {tt.divisibility = 16 : i32} loc("/var/lib/jenkins/AMD-triton/python/perf-kernels/issue561/new_ll/../../flash-attention.py":434:0), %arg8: i32 {tt.divisibility = 16 : i32} loc("/var/lib/jenkins/AMD-triton/python/perf-kernels/issue561/new_ll/../../flash-attention.py":434:0), %arg9: i32 {tt.divisibility = 16 : i32} loc("/var/lib/jenkins/AMD-triton/python/perf-kernels/issue561/new_ll/../../flash-attention.py":434:0), %arg10: i32 {tt.divisibility = 16 : i32} loc("/var/lib/jenkins/AMD-triton/python/perf-kernels/issue561/new_ll/../../flash-attention.py":434:0), %arg11: i32 {tt.divisibility = 16 : i32} loc("/var/lib/jenkins/AMD-triton/python/perf-kernels/issue561/new_ll/../../flash-attention.py":434:0), %arg12: i32 {tt.divisibility = 16 : i32} loc("/var/lib/jenkins/AMD-triton/python/perf-kernels/issue561/new_ll/../../flash-attention.py":434:0), %arg13: i32 {tt.divisibility = 16 : i32} loc("/var/lib/jenkins/AMD-triton/python/perf-kernels/issue561/new_ll/../../flash-attention.py":434:0), %arg14: i32 {tt.divisibility = 16 : i32} loc("/var/lib/jenkins/AMD-triton/python/perf-kernels/issue561/new_ll/../../flash-attention.py":434:0), %arg15: i32 {tt.divisibility = 16 : i32} loc("/var/lib/jenkins/AMD-triton/python/perf-kernels/issue561/new_ll/../../flash-attention.py":434:0), %arg16: i32 {tt.divisibility = 16 : i32} loc("/var/lib/jenkins/AMD-triton/python/perf-kernels/issue561/new_ll/../../flash-attention.py":434:0), %arg17: i32 {tt.divisibility = 16 : i32} loc("/var/lib/jenkins/AMD-triton/python/perf-kernels/issue561/new_ll/../../flash-attention.py":434:0), %arg18: i32 {tt.divisibility = 16 : i32} loc("/var/lib/jenkins/AMD-triton/python/perf-kernels/issue561/new_ll/../../flash-attention.py":434:0), %arg19: i32 {tt.divisibility = 16 : i32} loc("/var/lib/jenkins/AMD-triton/python/perf-kernels/issue561/new_ll/../../flash-attention.py":434:0), %arg20: i32 {tt.divisibility = 16 : i32} loc("/var/lib/jenkins/AMD-triton/python/perf-kernels/issue561/new_ll/../../flash-attention.py":434:0), %arg21: i32 {tt.divisibility = 16 : i32} loc("/var/lib/jenkins/AMD-triton/python/perf-kernels/issue561/new_ll/../../flash-attention.py":434:0), %arg22: i32 {tt.divisibility = 16 : i32} loc("/var/lib/jenkins/AMD-triton/python/perf-kernels/issue561/new_ll/../../flash-attention.py":434:0), %arg23: f32 loc("/var/lib/jenkins/AMD-triton/python/perf-kernels/issue561/new_ll/../../flash-attention.py":434:0), %arg24: i32 loc("/var/lib/jenkins/AMD-triton/python/perf-kernels/issue561/new_ll/../../flash-attention.py":434:0), %arg25: !tt.ptr<i32> {tt.divisibility = 16 : i32, tt.pointer_range = 32 : i32} loc("/var/lib/jenkins/AMD-triton/python/perf-kernels/issue561/new_ll/../../flash-attention.py":434:0), %arg26: i32 loc("/var/lib/jenkins/AMD-triton/python/perf-kernels/issue561/new_ll/../../flash-attention.py":434:0)) attributes {noinline = false} {
    %cst = arith.constant dense<0.000000e+00> : tensor<128x64xf32> loc(#loc1)
    %cst_0 = arith.constant dense<0.127517432> : tensor<128x64xf32> loc(#loc1)
    %cst_1 = arith.constant dense<0.000000e+00> : tensor<128x128xf32> loc(#loc1)
    %c16512_i32 = arith.constant 16512 : i32 loc(#loc1)
    %c262144_i32 = arith.constant 262144 : i32 loc(#loc1)
    %cst_2 = arith.constant dense<0.000000e+00> : tensor<128x128xf16> loc(#loc1)
    %cst_3 = arith.constant dense<true> : tensor<128x128xi1> loc(#loc1)
    %cst_4 = arith.constant dense<1.000000e+00> : tensor<128x1xf32> loc(#loc1)
    %cst_5 = arith.constant dense<16384> : tensor<128x1xi32> loc(#loc1)
    %cst_6 = arith.constant dense<1.000000e+00> : tensor<128xf32> loc(#loc1)
    %cst_7 = arith.constant dense<0xFF800000> : tensor<128xf32> loc(#loc1)
    %c64_i32 = arith.constant 64 : i32 loc(#loc1)
    %c16384_i32 = arith.constant 16384 : i32 loc(#loc1)
    %c128_i32 = arith.constant 128 : i32 loc(#loc1)
    %c1_i32 = arith.constant 1 : i32 loc(#loc1)
    %true = arith.constant true loc(#loc1)
    %c0_i32 = arith.constant 0 : i32 loc(#loc1)
    %0 = arith.cmpi sge, %arg5, %c0_i32 : i32 loc(#loc2)
    llvm.intr.assume %0 : i1 loc(#loc3)
    %1 = arith.cmpi sge, %arg6, %c0_i32 : i32 loc(#loc4)
    llvm.intr.assume %1 : i1 loc(#loc5)
    %2 = arith.cmpi sge, %arg7, %c0_i32 : i32 loc(#loc6)
    llvm.intr.assume %2 : i1 loc(#loc7)
    llvm.intr.assume %true : i1 loc(#loc8)
    %3 = arith.cmpi sge, %arg8, %c0_i32 : i32 loc(#loc9)
    llvm.intr.assume %3 : i1 loc(#loc10)
    %4 = arith.cmpi sge, %arg9, %c0_i32 : i32 loc(#loc11)
    llvm.intr.assume %4 : i1 loc(#loc12)
    %5 = arith.cmpi sge, %arg10, %c0_i32 : i32 loc(#loc13)
    llvm.intr.assume %5 : i1 loc(#loc14)
    llvm.intr.assume %true : i1 loc(#loc15)
    %6 = arith.cmpi sge, %arg17, %c0_i32 : i32 loc(#loc16)
    llvm.intr.assume %6 : i1 loc(#loc17)
    %7 = arith.cmpi sge, %arg18, %c0_i32 : i32 loc(#loc18)
    llvm.intr.assume %7 : i1 loc(#loc19)
    %8 = arith.cmpi sge, %arg19, %c0_i32 : i32 loc(#loc20)
    llvm.intr.assume %8 : i1 loc(#loc21)
    %9 = arith.cmpi sge, %arg20, %c0_i32 : i32 loc(#loc22)
    llvm.intr.assume %9 : i1 loc(#loc23)
    %10 = arith.cmpi sge, %arg11, %c0_i32 : i32 loc(#loc24)
    llvm.intr.assume %10 : i1 loc(#loc25)
    %11 = arith.cmpi sge, %arg12, %c0_i32 : i32 loc(#loc26)
    llvm.intr.assume %11 : i1 loc(#loc27)
    %12 = arith.cmpi sge, %arg13, %c0_i32 : i32 loc(#loc28)
    llvm.intr.assume %12 : i1 loc(#loc29)
    llvm.intr.assume %true : i1 loc(#loc30)
    %13 = arith.cmpi sge, %arg14, %c0_i32 : i32 loc(#loc31)
    llvm.intr.assume %13 : i1 loc(#loc32)
    %14 = arith.cmpi sge, %arg15, %c0_i32 : i32 loc(#loc33)
    llvm.intr.assume %14 : i1 loc(#loc34)
    %15 = arith.cmpi sge, %arg16, %c0_i32 : i32 loc(#loc35)
    llvm.intr.assume %15 : i1 loc(#loc36)
    llvm.intr.assume %true : i1 loc(#loc37)
    %16 = tt.get_program_id x : i32 loc(#loc38)
    %17 = tt.get_program_id y : i32 loc(#loc39)
    %18 = tt.get_program_id z : i32 loc(#loc40)
    %19 = arith.muli %16, %c128_i32 : i32 loc(#loc41)
    %20 = tt.make_range {end = 128 : i32, start = 0 : i32} : tensor<128xi32> loc(#loc42)
    %21 = tt.splat %19 : i32 -> tensor<128xi32> loc(#loc43)
    %22 = arith.addi %21, %20 : tensor<128xi32> loc(#loc43)
    %23 = tt.make_range {end = 64 : i32, start = 0 : i32} : tensor<64xi32> loc(#loc44)
    %24 = arith.muli %18, %arg5 : i32 loc(#loc45)
    %25 = tt.addptr %arg0, %24 : !tt.ptr<f16>, i32 loc(#loc46)
    %26 = arith.muli %17, %arg6 : i32 loc(#loc47)
    %27 = tt.addptr %25, %26 : !tt.ptr<f16>, i32 loc(#loc48)
    %28 = tt.expand_dims %22 {axis = 1 : i32} : tensor<128xi32> -> tensor<128x1xi32> loc(#loc49)
    %29 = tt.splat %arg7 : i32 -> tensor<128x1xi32> loc(#loc50)
    %30 = arith.muli %28, %29 : tensor<128x1xi32> loc(#loc50)
    %31 = tt.splat %27 : !tt.ptr<f16> -> tensor<128x1x!tt.ptr<f16>> loc(#loc51)
    %32 = tt.addptr %31, %30 : tensor<128x1x!tt.ptr<f16>>, tensor<128x1xi32> loc(#loc51)
    %33 = tt.expand_dims %20 {axis = 0 : i32} : tensor<128xi32> -> tensor<1x128xi32> loc(#loc52)
    %34 = tt.broadcast %32 : tensor<128x1x!tt.ptr<f16>> -> tensor<128x128x!tt.ptr<f16>> loc(#loc53)
    %35 = tt.broadcast %33 : tensor<1x128xi32> -> tensor<128x128xi32> loc(#loc53)
    %36 = tt.addptr %34, %35 : tensor<128x128x!tt.ptr<f16>>, tensor<128x128xi32> loc(#loc53)
    %37 = arith.muli %18, %arg8 : i32 loc(#loc54)
    %38 = tt.addptr %arg1, %37 : !tt.ptr<f16>, i32 loc(#loc55)
    %39 = arith.muli %17, %arg9 : i32 loc(#loc56)
    %40 = tt.addptr %38, %39 : !tt.ptr<f16>, i32 loc(#loc57)
    %41 = tt.expand_dims %20 {axis = 1 : i32} : tensor<128xi32> -> tensor<128x1xi32> loc(#loc58)
    %42 = tt.splat %40 : !tt.ptr<f16> -> tensor<128x1x!tt.ptr<f16>> loc(#loc59)
    %43 = tt.addptr %42, %41 : tensor<128x1x!tt.ptr<f16>>, tensor<128x1xi32> loc(#loc59)
    %44 = tt.expand_dims %23 {axis = 0 : i32} : tensor<64xi32> -> tensor<1x64xi32> loc(#loc60)
    %45 = tt.splat %arg10 : i32 -> tensor<1x64xi32> loc(#loc61)
    %46 = arith.muli %44, %45 : tensor<1x64xi32> loc(#loc61)
    %47 = tt.broadcast %43 : tensor<128x1x!tt.ptr<f16>> -> tensor<128x64x!tt.ptr<f16>> loc(#loc62)
    %48 = tt.broadcast %46 : tensor<1x64xi32> -> tensor<128x64xi32> loc(#loc62)
    %49 = tt.addptr %47, %48 : tensor<128x64x!tt.ptr<f16>>, tensor<128x64xi32> loc(#loc62)
    %50 = arith.muli %18, %arg11 : i32 loc(#loc63)
    %51 = tt.addptr %arg2, %50 : !tt.ptr<f16>, i32 loc(#loc64)
    %52 = arith.muli %17, %arg12 : i32 loc(#loc65)
    %53 = tt.addptr %51, %52 : !tt.ptr<f16>, i32 loc(#loc66)
    %54 = tt.expand_dims %23 {axis = 1 : i32} : tensor<64xi32> -> tensor<64x1xi32> loc(#loc67)
    %55 = tt.splat %arg13 : i32 -> tensor<64x1xi32> loc(#loc68)
    %56 = arith.muli %54, %55 : tensor<64x1xi32> loc(#loc68)
    %57 = tt.splat %53 : !tt.ptr<f16> -> tensor<64x1x!tt.ptr<f16>> loc(#loc69)
    %58 = tt.addptr %57, %56 : tensor<64x1x!tt.ptr<f16>>, tensor<64x1xi32> loc(#loc69)
    %59 = tt.broadcast %58 : tensor<64x1x!tt.ptr<f16>> -> tensor<64x128x!tt.ptr<f16>> loc(#loc70)
    %60 = tt.broadcast %33 : tensor<1x128xi32> -> tensor<64x128xi32> loc(#loc70)
    %61 = tt.addptr %59, %60 : tensor<64x128x!tt.ptr<f16>>, tensor<64x128xi32> loc(#loc70)
    %62 = arith.cmpi slt, %28, %cst_5 : tensor<128x1xi32> loc(#loc71)
    %63 = tt.broadcast %62 : tensor<128x1xi1> -> tensor<128x128xi1> loc(#loc72)
    %64 = arith.muli %arg10, %c64_i32 : i32 loc(#loc141)
    %65 = tt.splat %64 : i32 -> tensor<128x64xi32> loc(#loc142)
    %66 = arith.muli %arg13, %c64_i32 : i32 loc(#loc143)
    %67 = tt.splat %66 : i32 -> tensor<64x128xi32> loc(#loc144)
    %68 = arith.addi %16, %c1_i32 : i32 loc(#loc78)
    %69 = arith.muli %68, %c128_i32 : i32 loc(#loc79)
    %70 = arith.muli %18, %c262144_i32 : i32 loc(#loc80)
    %71 = tt.addptr %arg3, %70 : !tt.ptr<f32>, i32 loc(#loc81)
    %72 = arith.muli %17, %c16384_i32 : i32 loc(#loc82)
    %73 = tt.addptr %71, %72 : !tt.ptr<f32>, i32 loc(#loc83)
    %74 = tt.splat %73 : !tt.ptr<f32> -> tensor<128x!tt.ptr<f32>> loc(#loc84)
    %75 = tt.addptr %74, %22 : tensor<128x!tt.ptr<f32>>, tensor<128xi32> loc(#loc84)
    %76 = arith.subi %69, %c16384_i32 : i32 loc(#loc85)
    %77 = arith.cmpi sgt, %76, %c0_i32 : i32 loc(#loc86)
    %78 = arith.muli %18, %arg14 : i32 loc(#loc87)
    %79 = tt.addptr %arg4, %78 : !tt.ptr<f16>, i32 loc(#loc88)
    %80 = arith.muli %17, %arg15 : i32 loc(#loc89)
    %81 = tt.addptr %79, %80 : !tt.ptr<f16>, i32 loc(#loc90)
    %82 = tt.splat %arg16 : i32 -> tensor<128x1xi32> loc(#loc91)
    %83 = arith.muli %28, %82 : tensor<128x1xi32> loc(#loc91)
    %84 = tt.splat %81 : !tt.ptr<f16> -> tensor<128x1x!tt.ptr<f16>> loc(#loc92)
    %85 = tt.addptr %84, %83 : tensor<128x1x!tt.ptr<f16>>, tensor<128x1xi32> loc(#loc92)
    %86 = tt.broadcast %85 : tensor<128x1x!tt.ptr<f16>> -> tensor<128x128x!tt.ptr<f16>> loc(#loc93)
    %87 = tt.addptr %86, %35 : tensor<128x128x!tt.ptr<f16>>, tensor<128x128xi32> loc(#loc93)
    %88 = scf.if %77 -> (tensor<128x128xi1>) {
      scf.yield %63 : tensor<128x128xi1> loc(#loc95)
    } else {
      scf.yield %cst_3 : tensor<128x128xi1> loc(#loc1)
    } loc(#loc94)
    scf.while (%arg27 = %c0_i32) : (i32) -> () {
      %89 = arith.cmpi slt, %arg27, %c1_i32 : i32 loc(#loc97)
      scf.condition(%89) loc(#loc97)
    } do {
      %89 = tt.load %36, %63, %cst_2 : tensor<128x128x!tt.ptr<f16>> loc(#loc72)
      %90:5 = scf.for %arg27 = %c0_i32 to %c16384_i32 step %c64_i32 iter_args(%arg28 = %cst_1, %arg29 = %cst_6, %arg30 = %cst_7, %arg31 = %49, %arg32 = %61) -> (tensor<128x128xf32>, tensor<128xf32>, tensor<128xf32>, tensor<128x64x!tt.ptr<f16>>, tensor<64x128x!tt.ptr<f16>>)  : i32 {
        %96 = tt.load %arg31 : tensor<128x64x!tt.ptr<f16>> loc(#loc170)
        %97 = tt.dot %89, %96, %cst : tensor<128x128xf16> * tensor<128x64xf16> -> tensor<128x64xf32> loc(#loc147)
        %98 = arith.mulf %97, %cst_0 : tensor<128x64xf32> loc(#loc148)
        %99 = arith.addf %98, %cst : tensor<128x64xf32> loc(#loc149)
        %100 = "tt.reduce"(%99) <{axis = 1 : i32}> ({
        ^bb0(%arg33: f32 loc(callsite(#loc151 at #loc74)), %arg34: f32 loc(callsite(#loc151 at #loc74))):
          %119 = arith.maxnumf %arg33, %arg34 : f32 loc(#loc178)
          tt.reduce.return %119 : f32 loc(#loc171)
        }) : (tensor<128x64xf32>) -> tensor<128xf32> loc(#loc171)
        %101 = arith.maxnumf %arg30, %100 : tensor<128xf32> loc(#loc153)
        %102 = tt.expand_dims %101 {axis = 1 : i32} : tensor<128xf32> -> tensor<128x1xf32> loc(#loc154)
        %103 = tt.broadcast %102 : tensor<128x1xf32> -> tensor<128x64xf32> loc(#loc155)
        %104 = arith.subf %99, %103 : tensor<128x64xf32> loc(#loc155)
        %105 = math.exp2 %104 : tensor<128x64xf32> loc(#loc156)
        %106 = "tt.reduce"(%105) <{axis = 1 : i32}> ({
        ^bb0(%arg33: f32 loc(callsite(#loc158 at #loc74)), %arg34: f32 loc(callsite(#loc158 at #loc74))):
          %119 = arith.addf %arg33, %arg34 : f32 loc(#loc179)
          tt.reduce.return %119 : f32 loc(#loc174)
        }) : (tensor<128x64xf32>) -> tensor<128xf32> loc(#loc174)
        %107 = arith.subf %arg30, %101 : tensor<128xf32> loc(#loc160)
        %108 = math.exp2 %107 : tensor<128xf32> loc(#loc161)
        %109 = tt.expand_dims %108 {axis = 1 : i32} : tensor<128xf32> -> tensor<128x1xf32> loc(#loc162)
        %110 = tt.broadcast %109 : tensor<128x1xf32> -> tensor<128x128xf32> loc(#loc163)
        %111 = arith.mulf %arg28, %110 : tensor<128x128xf32> loc(#loc163)
        %112 = tt.load %arg32 : tensor<64x128x!tt.ptr<f16>> loc(#loc177)
        %113 = arith.mulf %arg29, %108 : tensor<128xf32> loc(#loc165)
        %114 = arith.addf %113, %106 : tensor<128xf32> loc(#loc166)
        %115 = arith.truncf %105 : tensor<128x64xf32> to tensor<128x64xf16> loc(#loc167)
        %116 = tt.dot %115, %112, %111 : tensor<128x64xf16> * tensor<64x128xf16> -> tensor<128x128xf32> loc(#loc168)
        %117 = tt.addptr %arg31, %65 : tensor<128x64x!tt.ptr<f16>>, tensor<128x64xi32> loc(#loc142)
        %118 = tt.addptr %arg32, %67 : tensor<64x128x!tt.ptr<f16>>, tensor<64x128xi32> loc(#loc144)
        scf.yield %116, %114, %101, %117, %118 : tensor<128x128xf32>, tensor<128xf32>, tensor<128xf32>, tensor<128x64x!tt.ptr<f16>>, tensor<64x128x!tt.ptr<f16>> loc(#loc169)
      } loc(#loc145)
      gpu.barrier loc(#loc124)
      %91 = tt.expand_dims %90#1 {axis = 1 : i32} : tensor<128xf32> -> tensor<128x1xf32> loc(#loc125)
      %92 = arith.divf %cst_4, %91 : tensor<128x1xf32> loc(#loc126)
      %93 = tt.broadcast %92 : tensor<128x1xf32> -> tensor<128x128xf32> loc(#loc127)
      %94 = arith.mulf %90#0, %93 : tensor<128x128xf32> loc(#loc127)
      %95 = arith.truncf %94 : tensor<128x128xf32> to tensor<128x128xf16> loc(#loc128)
      scf.if %77 {
        %96 = arith.subi %c16512_i32, %69 : i32 loc(#loc130)
        %97 = tt.splat %96 : i32 -> tensor<128xi32> loc(#loc131)
        %98 = arith.cmpi slt, %20, %97 : tensor<128xi32> loc(#loc132)
        %99 = math.log2 %90#1 : tensor<128xf32> loc(#loc133)
        %100 = arith.addf %90#2, %99 : tensor<128xf32> loc(#loc134)
        tt.store %75, %100, %98 : tensor<128x!tt.ptr<f32>> loc(#loc135)
      } else {
        %96 = math.log2 %90#1 : tensor<128xf32> loc(#loc136)
        %97 = arith.addf %90#2, %96 : tensor<128xf32> loc(#loc137)
        tt.store %75, %97 : tensor<128x!tt.ptr<f32>> loc(#loc138)
      } loc(#loc129)
      tt.store %87, %95, %88 : tensor<128x128x!tt.ptr<f16>> loc(#loc139)
      scf.yield %c1_i32 : i32 loc(#loc140)
    } loc(#loc96)
    tt.return loc(#loc96)
  } loc(#loc)
} loc(#loc)
#loc2 = loc("/var/lib/jenkins/AMD-triton/python/perf-kernels/issue561/new_ll/../../flash-attention.py":446:27)
#loc3 = loc("/var/lib/jenkins/AMD-triton/python/perf-kernels/issue561/new_ll/../../flash-attention.py":446:14)
#loc4 = loc("/var/lib/jenkins/AMD-triton/python/perf-kernels/issue561/new_ll/../../flash-attention.py":447:27)
#loc5 = loc("/var/lib/jenkins/AMD-triton/python/perf-kernels/issue561/new_ll/../../flash-attention.py":447:14)
#loc6 = loc("/var/lib/jenkins/AMD-triton/python/perf-kernels/issue561/new_ll/../../flash-attention.py":448:27)
#loc7 = loc("/var/lib/jenkins/AMD-triton/python/perf-kernels/issue561/new_ll/../../flash-attention.py":448:14)
#loc8 = loc("/var/lib/jenkins/AMD-triton/python/perf-kernels/issue561/new_ll/../../flash-attention.py":449:14)
#loc9 = loc("/var/lib/jenkins/AMD-triton/python/perf-kernels/issue561/new_ll/../../flash-attention.py":450:27)
#loc10 = loc("/var/lib/jenkins/AMD-triton/python/perf-kernels/issue561/new_ll/../../flash-attention.py":450:14)
#loc11 = loc("/var/lib/jenkins/AMD-triton/python/perf-kernels/issue561/new_ll/../../flash-attention.py":451:27)
#loc12 = loc("/var/lib/jenkins/AMD-triton/python/perf-kernels/issue561/new_ll/../../flash-attention.py":451:14)
#loc13 = loc("/var/lib/jenkins/AMD-triton/python/perf-kernels/issue561/new_ll/../../flash-attention.py":452:27)
#loc14 = loc("/var/lib/jenkins/AMD-triton/python/perf-kernels/issue561/new_ll/../../flash-attention.py":452:14)
#loc15 = loc("/var/lib/jenkins/AMD-triton/python/perf-kernels/issue561/new_ll/../../flash-attention.py":453:14)
#loc16 = loc("/var/lib/jenkins/AMD-triton/python/perf-kernels/issue561/new_ll/../../flash-attention.py":454:27)
#loc17 = loc("/var/lib/jenkins/AMD-triton/python/perf-kernels/issue561/new_ll/../../flash-attention.py":454:14)
#loc18 = loc("/var/lib/jenkins/AMD-triton/python/perf-kernels/issue561/new_ll/../../flash-attention.py":455:27)
#loc19 = loc("/var/lib/jenkins/AMD-triton/python/perf-kernels/issue561/new_ll/../../flash-attention.py":455:14)
#loc20 = loc("/var/lib/jenkins/AMD-triton/python/perf-kernels/issue561/new_ll/../../flash-attention.py":456:27)
#loc21 = loc("/var/lib/jenkins/AMD-triton/python/perf-kernels/issue561/new_ll/../../flash-attention.py":456:14)
#loc22 = loc("/var/lib/jenkins/AMD-triton/python/perf-kernels/issue561/new_ll/../../flash-attention.py":457:27)
#loc23 = loc("/var/lib/jenkins/AMD-triton/python/perf-kernels/issue561/new_ll/../../flash-attention.py":457:14)
#loc24 = loc("/var/lib/jenkins/AMD-triton/python/perf-kernels/issue561/new_ll/../../flash-attention.py":458:27)
#loc25 = loc("/var/lib/jenkins/AMD-triton/python/perf-kernels/issue561/new_ll/../../flash-attention.py":458:14)
#loc26 = loc("/var/lib/jenkins/AMD-triton/python/perf-kernels/issue561/new_ll/../../flash-attention.py":459:27)
#loc27 = loc("/var/lib/jenkins/AMD-triton/python/perf-kernels/issue561/new_ll/../../flash-attention.py":459:14)
#loc28 = loc("/var/lib/jenkins/AMD-triton/python/perf-kernels/issue561/new_ll/../../flash-attention.py":460:27)
#loc29 = loc("/var/lib/jenkins/AMD-triton/python/perf-kernels/issue561/new_ll/../../flash-attention.py":460:14)
#loc30 = loc("/var/lib/jenkins/AMD-triton/python/perf-kernels/issue561/new_ll/../../flash-attention.py":461:14)
#loc31 = loc("/var/lib/jenkins/AMD-triton/python/perf-kernels/issue561/new_ll/../../flash-attention.py":462:27)
#loc32 = loc("/var/lib/jenkins/AMD-triton/python/perf-kernels/issue561/new_ll/../../flash-attention.py":462:14)
#loc33 = loc("/var/lib/jenkins/AMD-triton/python/perf-kernels/issue561/new_ll/../../flash-attention.py":463:27)
#loc34 = loc("/var/lib/jenkins/AMD-triton/python/perf-kernels/issue561/new_ll/../../flash-attention.py":463:14)
#loc35 = loc("/var/lib/jenkins/AMD-triton/python/perf-kernels/issue561/new_ll/../../flash-attention.py":464:27)
#loc36 = loc("/var/lib/jenkins/AMD-triton/python/perf-kernels/issue561/new_ll/../../flash-attention.py":464:14)
#loc37 = loc("/var/lib/jenkins/AMD-triton/python/perf-kernels/issue561/new_ll/../../flash-attention.py":465:14)
#loc38 = loc("/var/lib/jenkins/AMD-triton/python/perf-kernels/issue561/new_ll/../../flash-attention.py":487:36)
#loc39 = loc("/var/lib/jenkins/AMD-triton/python/perf-kernels/issue561/new_ll/../../flash-attention.py":488:36)
#loc40 = loc("/var/lib/jenkins/AMD-triton/python/perf-kernels/issue561/new_ll/../../flash-attention.py":489:34)
#loc41 = loc("/var/lib/jenkins/AMD-triton/python/perf-kernels/issue561/new_ll/../../flash-attention.py":491:27)
#loc42 = loc("/var/lib/jenkins/AMD-triton/python/perf-kernels/issue561/new_ll/../../flash-attention.py":491:50)
#loc43 = loc("/var/lib/jenkins/AMD-triton/python/perf-kernels/issue561/new_ll/../../flash-attention.py":491:37)
#loc44 = loc("/var/lib/jenkins/AMD-triton/python/perf-kernels/issue561/new_ll/../../flash-attention.py":492:30)
#loc45 = loc("/var/lib/jenkins/AMD-triton/python/perf-kernels/issue561/new_ll/../../flash-attention.py":570:39)
#loc46 = loc("/var/lib/jenkins/AMD-triton/python/perf-kernels/issue561/new_ll/../../flash-attention.py":570:31)
#loc47 = loc("/var/lib/jenkins/AMD-triton/python/perf-kernels/issue561/new_ll/../../flash-attention.py":570:61)
#loc48 = loc("/var/lib/jenkins/AMD-triton/python/perf-kernels/issue561/new_ll/../../flash-attention.py":570:51)
#loc49 = loc("/var/lib/jenkins/AMD-triton/python/perf-kernels/issue561/new_ll/../../flash-attention.py":571:43)
#loc50 = loc("/var/lib/jenkins/AMD-triton/python/perf-kernels/issue561/new_ll/../../flash-attention.py":571:54)
#loc51 = loc("/var/lib/jenkins/AMD-triton/python/perf-kernels/issue561/new_ll/../../flash-attention.py":571:36)
#loc52 = loc("/var/lib/jenkins/AMD-triton/python/perf-kernels/issue561/new_ll/../../flash-attention.py":571:73)
#loc53 = loc("/var/lib/jenkins/AMD-triton/python/perf-kernels/issue561/new_ll/../../flash-attention.py":571:66)
#loc54 = loc("/var/lib/jenkins/AMD-triton/python/perf-kernels/issue561/new_ll/../../flash-attention.py":572:39)
#loc55 = loc("/var/lib/jenkins/AMD-triton/python/perf-kernels/issue561/new_ll/../../flash-attention.py":572:31)
#loc56 = loc("/var/lib/jenkins/AMD-triton/python/perf-kernels/issue561/new_ll/../../flash-attention.py":572:61)
#loc57 = loc("/var/lib/jenkins/AMD-triton/python/perf-kernels/issue561/new_ll/../../flash-attention.py":572:51)
#loc58 = loc("/var/lib/jenkins/AMD-triton/python/perf-kernels/issue561/new_ll/../../flash-attention.py":573:43)
#loc59 = loc("/var/lib/jenkins/AMD-triton/python/perf-kernels/issue561/new_ll/../../flash-attention.py":573:36)
#loc60 = loc("/var/lib/jenkins/AMD-triton/python/perf-kernels/issue561/new_ll/../../flash-attention.py":573:73)
#loc61 = loc("/var/lib/jenkins/AMD-triton/python/perf-kernels/issue561/new_ll/../../flash-attention.py":573:84)
#loc62 = loc("/var/lib/jenkins/AMD-triton/python/perf-kernels/issue561/new_ll/../../flash-attention.py":573:66)
#loc63 = loc("/var/lib/jenkins/AMD-triton/python/perf-kernels/issue561/new_ll/../../flash-attention.py":574:39)
#loc64 = loc("/var/lib/jenkins/AMD-triton/python/perf-kernels/issue561/new_ll/../../flash-attention.py":574:31)
#loc65 = loc("/var/lib/jenkins/AMD-triton/python/perf-kernels/issue561/new_ll/../../flash-attention.py":574:61)
#loc66 = loc("/var/lib/jenkins/AMD-triton/python/perf-kernels/issue561/new_ll/../../flash-attention.py":574:51)
#loc67 = loc("/var/lib/jenkins/AMD-triton/python/perf-kernels/issue561/new_ll/../../flash-attention.py":575:43)
#loc68 = loc("/var/lib/jenkins/AMD-triton/python/perf-kernels/issue561/new_ll/../../flash-attention.py":575:54)
#loc69 = loc("/var/lib/jenkins/AMD-triton/python/perf-kernels/issue561/new_ll/../../flash-attention.py":575:36)
#loc70 = loc("/var/lib/jenkins/AMD-triton/python/perf-kernels/issue561/new_ll/../../flash-attention.py":575:66)
#loc71 = loc("/var/lib/jenkins/AMD-triton/python/perf-kernels/issue561/new_ll/../../flash-attention.py":621:48)
#loc72 = loc("/var/lib/jenkins/AMD-triton/python/perf-kernels/issue561/new_ll/../../flash-attention.py":624:28)
#loc73 = loc("/var/lib/jenkins/AMD-triton/python/perf-kernels/issue561/new_ll/../../flash-attention.py":341:28)
#loc75 = loc("/var/lib/jenkins/AMD-triton/python/perf-kernels/issue561/new_ll/../../flash-attention.py":341:18)
#loc76 = loc("/var/lib/jenkins/AMD-triton/python/perf-kernels/issue561/new_ll/../../flash-attention.py":342:28)
#loc77 = loc("/var/lib/jenkins/AMD-triton/python/perf-kernels/issue561/new_ll/../../flash-attention.py":342:18)
#loc78 = loc("/var/lib/jenkins/AMD-triton/python/perf-kernels/issue561/new_ll/../../flash-attention.py":718:39)
#loc79 = loc("/var/lib/jenkins/AMD-triton/python/perf-kernels/issue561/new_ll/../../flash-attention.py":718:44)
#loc80 = loc("/var/lib/jenkins/AMD-triton/python/perf-kernels/issue561/new_ll/../../flash-attention.py":730:42)
#loc81 = loc("/var/lib/jenkins/AMD-triton/python/perf-kernels/issue561/new_ll/../../flash-attention.py":730:29)
#loc82 = loc("/var/lib/jenkins/AMD-triton/python/perf-kernels/issue561/new_ll/../../flash-attention.py":730:68)
#loc83 = loc("/var/lib/jenkins/AMD-triton/python/perf-kernels/issue561/new_ll/../../flash-attention.py":730:58)
#loc84 = loc("/var/lib/jenkins/AMD-triton/python/perf-kernels/issue561/new_ll/../../flash-attention.py":730:84)
#loc85 = loc("/var/lib/jenkins/AMD-triton/python/perf-kernels/issue561/new_ll/../../flash-attention.py":733:44)
#loc86 = loc("/var/lib/jenkins/AMD-triton/python/perf-kernels/issue561/new_ll/../../flash-attention.py":734:35)
#loc87 = loc("/var/lib/jenkins/AMD-triton/python/perf-kernels/issue561/new_ll/../../flash-attention.py":742:41)
#loc88 = loc("/var/lib/jenkins/AMD-triton/python/perf-kernels/issue561/new_ll/../../flash-attention.py":742:33)
#loc89 = loc("/var/lib/jenkins/AMD-triton/python/perf-kernels/issue561/new_ll/../../flash-attention.py":742:63)
#loc90 = loc("/var/lib/jenkins/AMD-triton/python/perf-kernels/issue561/new_ll/../../flash-attention.py":742:53)
#loc91 = loc("/var/lib/jenkins/AMD-triton/python/perf-kernels/issue561/new_ll/../../flash-attention.py":743:54)
#loc92 = loc("/var/lib/jenkins/AMD-triton/python/perf-kernels/issue561/new_ll/../../flash-attention.py":743:36)
#loc93 = loc("/var/lib/jenkins/AMD-triton/python/perf-kernels/issue561/new_ll/../../flash-attention.py":743:66)
#loc94 = loc("/var/lib/jenkins/AMD-triton/python/perf-kernels/issue561/new_ll/../../flash-attention.py":745:19)
#loc95 = loc("/var/lib/jenkins/AMD-triton/python/perf-kernels/issue561/new_ll/../../flash-attention.py":746:49)
#loc96 = loc("/var/lib/jenkins/AMD-triton/python/perf-kernels/issue561/new_ll/../../flash-attention.py":480:4)
#loc97 = loc("/var/lib/jenkins/AMD-triton/python/perf-kernels/issue561/new_ll/../../flash-attention.py":480:20)
#loc98 = loc("/var/lib/jenkins/AMD-triton/python/perf-kernels/issue561/new_ll/../../flash-attention.py":248:47)
#loc99 = loc("/var/lib/jenkins/AMD-triton/python/perf-kernels/issue561/new_ll/../../flash-attention.py":185:25)
#loc100 = loc("/var/lib/jenkins/AMD-triton/python/perf-kernels/issue561/new_ll/../../flash-attention.py":256:69)
#loc101 = loc("/var/lib/jenkins/AMD-triton/python/perf-kernels/issue561/new_ll/../../flash-attention.py":285:29)
#loc102 = loc("/var/lib/jenkins/AMD-triton/python/perf-kernels/issue561/new_ll/../../flash-attention.py":285:34)
#loc103 = loc("/var/lib/jenkins/AMD-triton/python/perf-kernels/issue561/new_ll/../../flash-attention.py":285:19)
#loc104 = loc("/var/lib/jenkins/OAI-triton/python/triton/language/standard.py":184:40)
#loc106 = loc("/var/lib/jenkins/OAI-triton/python/triton/language/standard.py":163:27)
#loc107 = loc("/var/lib/jenkins/AMD-triton/python/perf-kernels/issue561/new_ll/../../flash-attention.py":304:31)
#loc108 = loc("/var/lib/jenkins/AMD-triton/python/perf-kernels/issue561/new_ll/../../flash-attention.py":305:23)
#loc109 = loc("/var/lib/jenkins/AMD-triton/python/perf-kernels/issue561/new_ll/../../flash-attention.py":305:18)
#loc110 = loc("/var/lib/jenkins/AMD-triton/python/perf-kernels/issue561/new_ll/../../flash-attention.py":306:25)
#loc111 = loc("/var/lib/jenkins/OAI-triton/python/triton/language/standard.py":267:36)
#loc113 = loc("/var/lib/jenkins/OAI-triton/python/triton/language/standard.py":256:15)
#loc114 = loc("/var/lib/jenkins/AMD-triton/python/perf-kernels/issue561/new_ll/../../flash-attention.py":319:35)
#loc115 = loc("/var/lib/jenkins/AMD-triton/python/perf-kernels/issue561/new_ll/../../flash-attention.py":319:29)
#loc116 = loc("/var/lib/jenkins/AMD-triton/python/perf-kernels/issue561/new_ll/../../flash-attention.py":320:26)
#loc117 = loc("/var/lib/jenkins/AMD-triton/python/perf-kernels/issue561/new_ll/../../flash-attention.py":320:20)
#loc118 = loc("/var/lib/jenkins/AMD-triton/python/perf-kernels/issue561/new_ll/../../flash-attention.py":322:69)
#loc119 = loc("/var/lib/jenkins/AMD-triton/python/perf-kernels/issue561/new_ll/../../flash-attention.py":324:20)
#loc120 = loc("/var/lib/jenkins/AMD-triton/python/perf-kernels/issue561/new_ll/../../flash-attention.py":324:28)
#loc121 = loc("/var/lib/jenkins/AMD-triton/python/perf-kernels/issue561/new_ll/../../flash-attention.py":339:31)
#loc122 = loc("/var/lib/jenkins/AMD-triton/python/perf-kernels/issue561/new_ll/../../flash-attention.py":339:51)
#loc123 = loc("/var/lib/jenkins/AMD-triton/python/perf-kernels/issue561/new_ll/../../flash-attention.py":345:8)
#loc124 = loc("/var/lib/jenkins/AMD-triton/python/perf-kernels/issue561/new_ll/../../flash-attention.py":680:16)
#loc125 = loc("/var/lib/jenkins/AMD-triton/python/perf-kernels/issue561/new_ll/../../flash-attention.py":709:34)
#loc126 = loc("/var/lib/jenkins/AMD-triton/python/perf-kernels/issue561/new_ll/../../flash-attention.py":709:30)
#loc127 = loc("/var/lib/jenkins/AMD-triton/python/perf-kernels/issue561/new_ll/../../flash-attention.py":710:28)
#loc128 = loc("/var/lib/jenkins/AMD-triton/python/perf-kernels/issue561/new_ll/../../flash-attention.py":721:29)
#loc129 = loc("/var/lib/jenkins/AMD-triton/python/perf-kernels/issue561/new_ll/../../flash-attention.py":734:19)
#loc130 = loc("/var/lib/jenkins/AMD-triton/python/perf-kernels/issue561/new_ll/../../flash-attention.py":735:62)
#loc131 = loc("/var/lib/jenkins/AMD-triton/python/perf-kernels/issue561/new_ll/../../flash-attention.py":735:52)
#loc132 = loc("/var/lib/jenkins/AMD-triton/python/perf-kernels/issue561/new_ll/../../flash-attention.py":736:58)
#loc133 = loc("/var/lib/jenkins/AMD-triton/python/perf-kernels/issue561/new_ll/../../flash-attention.py":737:56)
#loc134 = loc("/var/lib/jenkins/AMD-triton/python/perf-kernels/issue561/new_ll/../../flash-attention.py":737:43)
#loc135 = loc("/var/lib/jenkins/AMD-triton/python/perf-kernels/issue561/new_ll/../../flash-attention.py":737:37)
#loc136 = loc("/var/lib/jenkins/AMD-triton/python/perf-kernels/issue561/new_ll/../../flash-attention.py":739:56)
#loc137 = loc("/var/lib/jenkins/AMD-triton/python/perf-kernels/issue561/new_ll/../../flash-attention.py":739:43)
#loc138 = loc("/var/lib/jenkins/AMD-triton/python/perf-kernels/issue561/new_ll/../../flash-attention.py":739:37)
#loc139 = loc("/var/lib/jenkins/AMD-triton/python/perf-kernels/issue561/new_ll/../../flash-attention.py":749:33)
#loc140 = loc("/var/lib/jenkins/AMD-triton/python/perf-kernels/issue561/new_ll/../../flash-attention.py":751:8)
#loc141 = loc(callsite(#loc73 at #loc74))
#loc142 = loc(callsite(#loc75 at #loc74))
#loc143 = loc(callsite(#loc76 at #loc74))
#loc144 = loc(callsite(#loc77 at #loc74))
#loc145 = loc(callsite(#loc98 at #loc74))
#loc146 = loc(callsite(#loc99 at #loc100))
#loc147 = loc(callsite(#loc101 at #loc74))
#loc148 = loc(callsite(#loc102 at #loc74))
#loc149 = loc(callsite(#loc103 at #loc74))
#loc150 = loc(callsite(#loc104 at #loc105))
#loc152 = loc(callsite(#loc106 at #loc104))
#loc153 = loc(callsite(#loc107 at #loc74))
#loc154 = loc(callsite(#loc108 at #loc74))
#loc155 = loc(callsite(#loc109 at #loc74))
#loc156 = loc(callsite(#loc110 at #loc74))
#loc157 = loc(callsite(#loc111 at #loc112))
#loc159 = loc(callsite(#loc113 at #loc111))
#loc160 = loc(callsite(#loc114 at #loc74))
#loc161 = loc(callsite(#loc115 at #loc74))
#loc162 = loc(callsite(#loc116 at #loc74))
#loc163 = loc(callsite(#loc117 at #loc74))
#loc164 = loc(callsite(#loc99 at #loc118))
#loc165 = loc(callsite(#loc119 at #loc74))
#loc166 = loc(callsite(#loc120 at #loc74))
#loc167 = loc(callsite(#loc121 at #loc74))
#loc168 = loc(callsite(#loc122 at #loc74))
#loc169 = loc(callsite(#loc123 at #loc74))
#loc170 = loc(callsite(#loc146 at #loc74))
#loc171 = loc(callsite(#loc150 at #loc74))
#loc173 = loc(callsite(#loc152 at #loc105))
#loc174 = loc(callsite(#loc157 at #loc74))
#loc176 = loc(callsite(#loc159 at #loc112))
#loc177 = loc(callsite(#loc164 at #loc74))
#loc178 = loc(callsite(#loc173 at #loc74))
#loc179 = loc(callsite(#loc176 at #loc74))
